<?xml version="1.0" ?>
<net batch="1" name="v1" version="5">
	<layers>
		<layer id="0" name="data" precision="FP32" type="Input">
			<output>
				<port id="0">
					<dim>1</dim>
					<dim>3</dim>
					<dim>480</dim>
					<dim>640</dim>
				</port>
			</output>
		</layer>
		<layer id="1" name="conv1" precision="FP32" type="Convolution">
			<data dilations="1,1" group="1" kernel="3,3" output="64" pads_begin="0,0" pads_end="0,0" strides="2,2"/>
			<input>
				<port id="0">
					<dim>1</dim>
					<dim>3</dim>
					<dim>480</dim>
					<dim>640</dim>
				</port>
			</input>
			<output>
				<port id="3">
					<dim>1</dim>
					<dim>64</dim>
					<dim>239</dim>
					<dim>319</dim>
				</port>
			</output>
			<blobs>
				<weights offset="0" size="6912"/>
				<biases offset="6912" size="256"/>
			</blobs>
		</layer>
		<layer id="2" name="relu_conv1" precision="FP32" type="ReLU">
			<input>
				<port id="0">
					<dim>1</dim>
					<dim>64</dim>
					<dim>239</dim>
					<dim>319</dim>
				</port>
			</input>
			<output>
				<port id="1">
					<dim>1</dim>
					<dim>64</dim>
					<dim>239</dim>
					<dim>319</dim>
				</port>
			</output>
		</layer>
		<layer id="3" name="conv2" precision="FP32" type="Convolution">
			<data dilations="1,1" group="1" kernel="3,3" output="64" pads_begin="0,0" pads_end="0,0" strides="2,2"/>
			<input>
				<port id="0">
					<dim>1</dim>
					<dim>64</dim>
					<dim>239</dim>
					<dim>319</dim>
				</port>
			</input>
			<output>
				<port id="3">
					<dim>1</dim>
					<dim>64</dim>
					<dim>119</dim>
					<dim>159</dim>
				</port>
			</output>
			<blobs>
				<weights offset="7168" size="147456"/>
				<biases offset="154624" size="256"/>
			</blobs>
		</layer>
		<layer id="4" name="relu_conv2" precision="FP32" type="ReLU">
			<input>
				<port id="0">
					<dim>1</dim>
					<dim>64</dim>
					<dim>119</dim>
					<dim>159</dim>
				</port>
			</input>
			<output>
				<port id="1">
					<dim>1</dim>
					<dim>64</dim>
					<dim>119</dim>
					<dim>159</dim>
				</port>
			</output>
		</layer>
		<layer id="5" name="conv3" precision="FP32" type="Convolution">
			<data dilations="1,1" group="1" kernel="3,3" output="64" pads_begin="1,1" pads_end="1,1" strides="1,1"/>
			<input>
				<port id="0">
					<dim>1</dim>
					<dim>64</dim>
					<dim>119</dim>
					<dim>159</dim>
				</port>
			</input>
			<output>
				<port id="3">
					<dim>1</dim>
					<dim>64</dim>
					<dim>119</dim>
					<dim>159</dim>
				</port>
			</output>
			<blobs>
				<weights offset="154880" size="147456"/>
				<biases offset="302336" size="256"/>
			</blobs>
		</layer>
		<layer id="6" name="relu_conv3" precision="FP32" type="ReLU">
			<input>
				<port id="0">
					<dim>1</dim>
					<dim>64</dim>
					<dim>119</dim>
					<dim>159</dim>
				</port>
			</input>
			<output>
				<port id="1">
					<dim>1</dim>
					<dim>64</dim>
					<dim>119</dim>
					<dim>159</dim>
				</port>
			</output>
		</layer>
		<layer id="7" name="conv4" precision="FP32" type="Convolution">
			<data dilations="1,1" group="1" kernel="3,3" output="64" pads_begin="1,1" pads_end="1,1" strides="1,1"/>
			<input>
				<port id="0">
					<dim>1</dim>
					<dim>64</dim>
					<dim>119</dim>
					<dim>159</dim>
				</port>
			</input>
			<output>
				<port id="3">
					<dim>1</dim>
					<dim>64</dim>
					<dim>119</dim>
					<dim>159</dim>
				</port>
			</output>
			<blobs>
				<weights offset="302592" size="147456"/>
				<biases offset="450048" size="256"/>
			</blobs>
		</layer>
		<layer id="8" name="_plus10" precision="FP32" type="Eltwise">
			<data operation="sum"/>
			<input>
				<port id="0">
					<dim>1</dim>
					<dim>64</dim>
					<dim>119</dim>
					<dim>159</dim>
				</port>
				<port id="1">
					<dim>1</dim>
					<dim>64</dim>
					<dim>119</dim>
					<dim>159</dim>
				</port>
			</input>
			<output>
				<port id="2">
					<dim>1</dim>
					<dim>64</dim>
					<dim>119</dim>
					<dim>159</dim>
				</port>
			</output>
		</layer>
		<layer id="9" name="relu_conv4" precision="FP32" type="ReLU">
			<input>
				<port id="0">
					<dim>1</dim>
					<dim>64</dim>
					<dim>119</dim>
					<dim>159</dim>
				</port>
			</input>
			<output>
				<port id="1">
					<dim>1</dim>
					<dim>64</dim>
					<dim>119</dim>
					<dim>159</dim>
				</port>
			</output>
		</layer>
		<layer id="10" name="conv5" precision="FP32" type="Convolution">
			<data dilations="1,1" group="1" kernel="3,3" output="64" pads_begin="1,1" pads_end="1,1" strides="1,1"/>
			<input>
				<port id="0">
					<dim>1</dim>
					<dim>64</dim>
					<dim>119</dim>
					<dim>159</dim>
				</port>
			</input>
			<output>
				<port id="3">
					<dim>1</dim>
					<dim>64</dim>
					<dim>119</dim>
					<dim>159</dim>
				</port>
			</output>
			<blobs>
				<weights offset="450304" size="147456"/>
				<biases offset="597760" size="256"/>
			</blobs>
		</layer>
		<layer id="11" name="relu_conv5" precision="FP32" type="ReLU">
			<input>
				<port id="0">
					<dim>1</dim>
					<dim>64</dim>
					<dim>119</dim>
					<dim>159</dim>
				</port>
			</input>
			<output>
				<port id="1">
					<dim>1</dim>
					<dim>64</dim>
					<dim>119</dim>
					<dim>159</dim>
				</port>
			</output>
		</layer>
		<layer id="12" name="conv6" precision="FP32" type="Convolution">
			<data dilations="1,1" group="1" kernel="3,3" output="64" pads_begin="1,1" pads_end="1,1" strides="1,1"/>
			<input>
				<port id="0">
					<dim>1</dim>
					<dim>64</dim>
					<dim>119</dim>
					<dim>159</dim>
				</port>
			</input>
			<output>
				<port id="3">
					<dim>1</dim>
					<dim>64</dim>
					<dim>119</dim>
					<dim>159</dim>
				</port>
			</output>
			<blobs>
				<weights offset="598016" size="147456"/>
				<biases offset="745472" size="256"/>
			</blobs>
		</layer>
		<layer id="13" name="_plus11" precision="FP32" type="Eltwise">
			<data operation="sum"/>
			<input>
				<port id="0">
					<dim>1</dim>
					<dim>64</dim>
					<dim>119</dim>
					<dim>159</dim>
				</port>
				<port id="1">
					<dim>1</dim>
					<dim>64</dim>
					<dim>119</dim>
					<dim>159</dim>
				</port>
			</input>
			<output>
				<port id="2">
					<dim>1</dim>
					<dim>64</dim>
					<dim>119</dim>
					<dim>159</dim>
				</port>
			</output>
		</layer>
		<layer id="14" name="relu_conv6" precision="FP32" type="ReLU">
			<input>
				<port id="0">
					<dim>1</dim>
					<dim>64</dim>
					<dim>119</dim>
					<dim>159</dim>
				</port>
			</input>
			<output>
				<port id="1">
					<dim>1</dim>
					<dim>64</dim>
					<dim>119</dim>
					<dim>159</dim>
				</port>
			</output>
		</layer>
		<layer id="15" name="conv7" precision="FP32" type="Convolution">
			<data dilations="1,1" group="1" kernel="3,3" output="64" pads_begin="1,1" pads_end="1,1" strides="1,1"/>
			<input>
				<port id="0">
					<dim>1</dim>
					<dim>64</dim>
					<dim>119</dim>
					<dim>159</dim>
				</port>
			</input>
			<output>
				<port id="3">
					<dim>1</dim>
					<dim>64</dim>
					<dim>119</dim>
					<dim>159</dim>
				</port>
			</output>
			<blobs>
				<weights offset="745728" size="147456"/>
				<biases offset="893184" size="256"/>
			</blobs>
		</layer>
		<layer id="16" name="relu_conv7" precision="FP32" type="ReLU">
			<input>
				<port id="0">
					<dim>1</dim>
					<dim>64</dim>
					<dim>119</dim>
					<dim>159</dim>
				</port>
			</input>
			<output>
				<port id="1">
					<dim>1</dim>
					<dim>64</dim>
					<dim>119</dim>
					<dim>159</dim>
				</port>
			</output>
		</layer>
		<layer id="17" name="conv8" precision="FP32" type="Convolution">
			<data dilations="1,1" group="1" kernel="3,3" output="64" pads_begin="1,1" pads_end="1,1" strides="1,1"/>
			<input>
				<port id="0">
					<dim>1</dim>
					<dim>64</dim>
					<dim>119</dim>
					<dim>159</dim>
				</port>
			</input>
			<output>
				<port id="3">
					<dim>1</dim>
					<dim>64</dim>
					<dim>119</dim>
					<dim>159</dim>
				</port>
			</output>
			<blobs>
				<weights offset="893440" size="147456"/>
				<biases offset="1040896" size="256"/>
			</blobs>
		</layer>
		<layer id="18" name="_plus12" precision="FP32" type="Eltwise">
			<data operation="sum"/>
			<input>
				<port id="0">
					<dim>1</dim>
					<dim>64</dim>
					<dim>119</dim>
					<dim>159</dim>
				</port>
				<port id="1">
					<dim>1</dim>
					<dim>64</dim>
					<dim>119</dim>
					<dim>159</dim>
				</port>
			</input>
			<output>
				<port id="2">
					<dim>1</dim>
					<dim>64</dim>
					<dim>119</dim>
					<dim>159</dim>
				</port>
			</output>
		</layer>
		<layer id="19" name="relu_conv8" precision="FP32" type="ReLU">
			<input>
				<port id="0">
					<dim>1</dim>
					<dim>64</dim>
					<dim>119</dim>
					<dim>159</dim>
				</port>
			</input>
			<output>
				<port id="1">
					<dim>1</dim>
					<dim>64</dim>
					<dim>119</dim>
					<dim>159</dim>
				</port>
			</output>
		</layer>
		<layer id="20" name="conv9" precision="FP32" type="Convolution">
			<data dilations="1,1" group="1" kernel="3,3" output="64" pads_begin="1,1" pads_end="1,1" strides="1,1"/>
			<input>
				<port id="0">
					<dim>1</dim>
					<dim>64</dim>
					<dim>119</dim>
					<dim>159</dim>
				</port>
			</input>
			<output>
				<port id="3">
					<dim>1</dim>
					<dim>64</dim>
					<dim>119</dim>
					<dim>159</dim>
				</port>
			</output>
			<blobs>
				<weights offset="1041152" size="147456"/>
				<biases offset="1188608" size="256"/>
			</blobs>
		</layer>
		<layer id="21" name="relu_conv9" precision="FP32" type="ReLU">
			<input>
				<port id="0">
					<dim>1</dim>
					<dim>64</dim>
					<dim>119</dim>
					<dim>159</dim>
				</port>
			</input>
			<output>
				<port id="1">
					<dim>1</dim>
					<dim>64</dim>
					<dim>119</dim>
					<dim>159</dim>
				</port>
			</output>
		</layer>
		<layer id="22" name="conv10" precision="FP32" type="Convolution">
			<data dilations="1,1" group="1" kernel="3,3" output="64" pads_begin="1,1" pads_end="1,1" strides="1,1"/>
			<input>
				<port id="0">
					<dim>1</dim>
					<dim>64</dim>
					<dim>119</dim>
					<dim>159</dim>
				</port>
			</input>
			<output>
				<port id="3">
					<dim>1</dim>
					<dim>64</dim>
					<dim>119</dim>
					<dim>159</dim>
				</port>
			</output>
			<blobs>
				<weights offset="1188864" size="147456"/>
				<biases offset="1336320" size="256"/>
			</blobs>
		</layer>
		<layer id="23" name="_plus13" precision="FP32" type="Eltwise">
			<data operation="sum"/>
			<input>
				<port id="0">
					<dim>1</dim>
					<dim>64</dim>
					<dim>119</dim>
					<dim>159</dim>
				</port>
				<port id="1">
					<dim>1</dim>
					<dim>64</dim>
					<dim>119</dim>
					<dim>159</dim>
				</port>
			</input>
			<output>
				<port id="2">
					<dim>1</dim>
					<dim>64</dim>
					<dim>119</dim>
					<dim>159</dim>
				</port>
			</output>
		</layer>
		<layer id="24" name="relu_conv10" precision="FP32" type="ReLU">
			<input>
				<port id="0">
					<dim>1</dim>
					<dim>64</dim>
					<dim>119</dim>
					<dim>159</dim>
				</port>
			</input>
			<output>
				<port id="1">
					<dim>1</dim>
					<dim>64</dim>
					<dim>119</dim>
					<dim>159</dim>
				</port>
			</output>
		</layer>
		<layer id="25" name="conv10_1" precision="FP32" type="Convolution">
			<data dilations="1,1" group="1" kernel="1,1" output="128" pads_begin="0,0" pads_end="0,0" strides="1,1"/>
			<input>
				<port id="0">
					<dim>1</dim>
					<dim>64</dim>
					<dim>119</dim>
					<dim>159</dim>
				</port>
			</input>
			<output>
				<port id="3">
					<dim>1</dim>
					<dim>128</dim>
					<dim>119</dim>
					<dim>159</dim>
				</port>
			</output>
			<blobs>
				<weights offset="1336576" size="32768"/>
				<biases offset="1369344" size="512"/>
			</blobs>
		</layer>
		<layer id="26" name="relu_conv10_1" precision="FP32" type="ReLU">
			<input>
				<port id="0">
					<dim>1</dim>
					<dim>128</dim>
					<dim>119</dim>
					<dim>159</dim>
				</port>
			</input>
			<output>
				<port id="1">
					<dim>1</dim>
					<dim>128</dim>
					<dim>119</dim>
					<dim>159</dim>
				</port>
			</output>
		</layer>
		<layer id="27" name="conv10_2_bbox" precision="FP32" type="Convolution">
			<data dilations="1,1" group="1" kernel="1,1" output="128" pads_begin="0,0" pads_end="0,0" strides="1,1"/>
			<input>
				<port id="0">
					<dim>1</dim>
					<dim>128</dim>
					<dim>119</dim>
					<dim>159</dim>
				</port>
			</input>
			<output>
				<port id="3">
					<dim>1</dim>
					<dim>128</dim>
					<dim>119</dim>
					<dim>159</dim>
				</port>
			</output>
			<blobs>
				<weights offset="1369856" size="65536"/>
				<biases offset="1435392" size="512"/>
			</blobs>
		</layer>
		<layer id="28" name="relu_conv10_2_bbox" precision="FP32" type="ReLU">
			<input>
				<port id="0">
					<dim>1</dim>
					<dim>128</dim>
					<dim>119</dim>
					<dim>159</dim>
				</port>
			</input>
			<output>
				<port id="1">
					<dim>1</dim>
					<dim>128</dim>
					<dim>119</dim>
					<dim>159</dim>
				</port>
			</output>
		</layer>
		<layer id="29" name="conv10_3_bbox" precision="FP32" type="Convolution">
			<data dilations="1,1" group="1" kernel="1,1" output="4" pads_begin="0,0" pads_end="0,0" strides="1,1"/>
			<input>
				<port id="0">
					<dim>1</dim>
					<dim>128</dim>
					<dim>119</dim>
					<dim>159</dim>
				</port>
			</input>
			<output>
				<port id="3">
					<dim>1</dim>
					<dim>4</dim>
					<dim>119</dim>
					<dim>159</dim>
				</port>
			</output>
			<blobs>
				<weights offset="1435904" size="2048"/>
				<biases offset="1437952" size="16"/>
			</blobs>
		</layer>
		<layer id="30" name="conv11" precision="FP32" type="Convolution">
			<data dilations="1,1" group="1" kernel="3,3" output="64" pads_begin="0,0" pads_end="0,0" strides="2,2"/>
			<input>
				<port id="0">
					<dim>1</dim>
					<dim>64</dim>
					<dim>119</dim>
					<dim>159</dim>
				</port>
			</input>
			<output>
				<port id="3">
					<dim>1</dim>
					<dim>64</dim>
					<dim>59</dim>
					<dim>79</dim>
				</port>
			</output>
			<blobs>
				<weights offset="1437968" size="147456"/>
				<biases offset="1585424" size="256"/>
			</blobs>
		</layer>
		<layer id="31" name="relu_conv11" precision="FP32" type="ReLU">
			<input>
				<port id="0">
					<dim>1</dim>
					<dim>64</dim>
					<dim>59</dim>
					<dim>79</dim>
				</port>
			</input>
			<output>
				<port id="1">
					<dim>1</dim>
					<dim>64</dim>
					<dim>59</dim>
					<dim>79</dim>
				</port>
			</output>
		</layer>
		<layer id="32" name="conv12" precision="FP32" type="Convolution">
			<data dilations="1,1" group="1" kernel="3,3" output="64" pads_begin="1,1" pads_end="1,1" strides="1,1"/>
			<input>
				<port id="0">
					<dim>1</dim>
					<dim>64</dim>
					<dim>59</dim>
					<dim>79</dim>
				</port>
			</input>
			<output>
				<port id="3">
					<dim>1</dim>
					<dim>64</dim>
					<dim>59</dim>
					<dim>79</dim>
				</port>
			</output>
			<blobs>
				<weights offset="1585680" size="147456"/>
				<biases offset="1733136" size="256"/>
			</blobs>
		</layer>
		<layer id="33" name="relu_conv12" precision="FP32" type="ReLU">
			<input>
				<port id="0">
					<dim>1</dim>
					<dim>64</dim>
					<dim>59</dim>
					<dim>79</dim>
				</port>
			</input>
			<output>
				<port id="1">
					<dim>1</dim>
					<dim>64</dim>
					<dim>59</dim>
					<dim>79</dim>
				</port>
			</output>
		</layer>
		<layer id="34" name="conv13" precision="FP32" type="Convolution">
			<data dilations="1,1" group="1" kernel="3,3" output="64" pads_begin="1,1" pads_end="1,1" strides="1,1"/>
			<input>
				<port id="0">
					<dim>1</dim>
					<dim>64</dim>
					<dim>59</dim>
					<dim>79</dim>
				</port>
			</input>
			<output>
				<port id="3">
					<dim>1</dim>
					<dim>64</dim>
					<dim>59</dim>
					<dim>79</dim>
				</port>
			</output>
			<blobs>
				<weights offset="1733392" size="147456"/>
				<biases offset="1880848" size="256"/>
			</blobs>
		</layer>
		<layer id="35" name="_plus14" precision="FP32" type="Eltwise">
			<data operation="sum"/>
			<input>
				<port id="0">
					<dim>1</dim>
					<dim>64</dim>
					<dim>59</dim>
					<dim>79</dim>
				</port>
				<port id="1">
					<dim>1</dim>
					<dim>64</dim>
					<dim>59</dim>
					<dim>79</dim>
				</port>
			</input>
			<output>
				<port id="2">
					<dim>1</dim>
					<dim>64</dim>
					<dim>59</dim>
					<dim>79</dim>
				</port>
			</output>
		</layer>
		<layer id="36" name="relu_conv13" precision="FP32" type="ReLU">
			<input>
				<port id="0">
					<dim>1</dim>
					<dim>64</dim>
					<dim>59</dim>
					<dim>79</dim>
				</port>
			</input>
			<output>
				<port id="1">
					<dim>1</dim>
					<dim>64</dim>
					<dim>59</dim>
					<dim>79</dim>
				</port>
			</output>
		</layer>
		<layer id="37" name="conv13_1" precision="FP32" type="Convolution">
			<data dilations="1,1" group="1" kernel="1,1" output="128" pads_begin="0,0" pads_end="0,0" strides="1,1"/>
			<input>
				<port id="0">
					<dim>1</dim>
					<dim>64</dim>
					<dim>59</dim>
					<dim>79</dim>
				</port>
			</input>
			<output>
				<port id="3">
					<dim>1</dim>
					<dim>128</dim>
					<dim>59</dim>
					<dim>79</dim>
				</port>
			</output>
			<blobs>
				<weights offset="1881104" size="32768"/>
				<biases offset="1913872" size="512"/>
			</blobs>
		</layer>
		<layer id="38" name="relu_conv13_1" precision="FP32" type="ReLU">
			<input>
				<port id="0">
					<dim>1</dim>
					<dim>128</dim>
					<dim>59</dim>
					<dim>79</dim>
				</port>
			</input>
			<output>
				<port id="1">
					<dim>1</dim>
					<dim>128</dim>
					<dim>59</dim>
					<dim>79</dim>
				</port>
			</output>
		</layer>
		<layer id="39" name="conv13_2_bbox" precision="FP32" type="Convolution">
			<data dilations="1,1" group="1" kernel="1,1" output="128" pads_begin="0,0" pads_end="0,0" strides="1,1"/>
			<input>
				<port id="0">
					<dim>1</dim>
					<dim>128</dim>
					<dim>59</dim>
					<dim>79</dim>
				</port>
			</input>
			<output>
				<port id="3">
					<dim>1</dim>
					<dim>128</dim>
					<dim>59</dim>
					<dim>79</dim>
				</port>
			</output>
			<blobs>
				<weights offset="1914384" size="65536"/>
				<biases offset="1979920" size="512"/>
			</blobs>
		</layer>
		<layer id="40" name="relu_conv13_2_bbox" precision="FP32" type="ReLU">
			<input>
				<port id="0">
					<dim>1</dim>
					<dim>128</dim>
					<dim>59</dim>
					<dim>79</dim>
				</port>
			</input>
			<output>
				<port id="1">
					<dim>1</dim>
					<dim>128</dim>
					<dim>59</dim>
					<dim>79</dim>
				</port>
			</output>
		</layer>
		<layer id="41" name="conv13_3_bbox" precision="FP32" type="Convolution">
			<data dilations="1,1" group="1" kernel="1,1" output="4" pads_begin="0,0" pads_end="0,0" strides="1,1"/>
			<input>
				<port id="0">
					<dim>1</dim>
					<dim>128</dim>
					<dim>59</dim>
					<dim>79</dim>
				</port>
			</input>
			<output>
				<port id="3">
					<dim>1</dim>
					<dim>4</dim>
					<dim>59</dim>
					<dim>79</dim>
				</port>
			</output>
			<blobs>
				<weights offset="1980432" size="2048"/>
				<biases offset="1982480" size="16"/>
			</blobs>
		</layer>
		<layer id="42" name="conv14" precision="FP32" type="Convolution">
			<data dilations="1,1" group="1" kernel="3,3" output="64" pads_begin="1,1" pads_end="1,1" strides="1,1"/>
			<input>
				<port id="0">
					<dim>1</dim>
					<dim>64</dim>
					<dim>59</dim>
					<dim>79</dim>
				</port>
			</input>
			<output>
				<port id="3">
					<dim>1</dim>
					<dim>64</dim>
					<dim>59</dim>
					<dim>79</dim>
				</port>
			</output>
			<blobs>
				<weights offset="1982496" size="147456"/>
				<biases offset="2129952" size="256"/>
			</blobs>
		</layer>
		<layer id="43" name="relu_conv14" precision="FP32" type="ReLU">
			<input>
				<port id="0">
					<dim>1</dim>
					<dim>64</dim>
					<dim>59</dim>
					<dim>79</dim>
				</port>
			</input>
			<output>
				<port id="1">
					<dim>1</dim>
					<dim>64</dim>
					<dim>59</dim>
					<dim>79</dim>
				</port>
			</output>
		</layer>
		<layer id="44" name="conv15" precision="FP32" type="Convolution">
			<data dilations="1,1" group="1" kernel="3,3" output="64" pads_begin="1,1" pads_end="1,1" strides="1,1"/>
			<input>
				<port id="0">
					<dim>1</dim>
					<dim>64</dim>
					<dim>59</dim>
					<dim>79</dim>
				</port>
			</input>
			<output>
				<port id="3">
					<dim>1</dim>
					<dim>64</dim>
					<dim>59</dim>
					<dim>79</dim>
				</port>
			</output>
			<blobs>
				<weights offset="2130208" size="147456"/>
				<biases offset="2277664" size="256"/>
			</blobs>
		</layer>
		<layer id="45" name="_plus15" precision="FP32" type="Eltwise">
			<data operation="sum"/>
			<input>
				<port id="0">
					<dim>1</dim>
					<dim>64</dim>
					<dim>59</dim>
					<dim>79</dim>
				</port>
				<port id="1">
					<dim>1</dim>
					<dim>64</dim>
					<dim>59</dim>
					<dim>79</dim>
				</port>
			</input>
			<output>
				<port id="2">
					<dim>1</dim>
					<dim>64</dim>
					<dim>59</dim>
					<dim>79</dim>
				</port>
			</output>
		</layer>
		<layer id="46" name="relu_conv15" precision="FP32" type="ReLU">
			<input>
				<port id="0">
					<dim>1</dim>
					<dim>64</dim>
					<dim>59</dim>
					<dim>79</dim>
				</port>
			</input>
			<output>
				<port id="1">
					<dim>1</dim>
					<dim>64</dim>
					<dim>59</dim>
					<dim>79</dim>
				</port>
			</output>
		</layer>
		<layer id="47" name="conv15_1" precision="FP32" type="Convolution">
			<data dilations="1,1" group="1" kernel="1,1" output="128" pads_begin="0,0" pads_end="0,0" strides="1,1"/>
			<input>
				<port id="0">
					<dim>1</dim>
					<dim>64</dim>
					<dim>59</dim>
					<dim>79</dim>
				</port>
			</input>
			<output>
				<port id="3">
					<dim>1</dim>
					<dim>128</dim>
					<dim>59</dim>
					<dim>79</dim>
				</port>
			</output>
			<blobs>
				<weights offset="2277920" size="32768"/>
				<biases offset="2310688" size="512"/>
			</blobs>
		</layer>
		<layer id="48" name="relu_conv15_1" precision="FP32" type="ReLU">
			<input>
				<port id="0">
					<dim>1</dim>
					<dim>128</dim>
					<dim>59</dim>
					<dim>79</dim>
				</port>
			</input>
			<output>
				<port id="1">
					<dim>1</dim>
					<dim>128</dim>
					<dim>59</dim>
					<dim>79</dim>
				</port>
			</output>
		</layer>
		<layer id="49" name="conv15_2_bbox" precision="FP32" type="Convolution">
			<data dilations="1,1" group="1" kernel="1,1" output="128" pads_begin="0,0" pads_end="0,0" strides="1,1"/>
			<input>
				<port id="0">
					<dim>1</dim>
					<dim>128</dim>
					<dim>59</dim>
					<dim>79</dim>
				</port>
			</input>
			<output>
				<port id="3">
					<dim>1</dim>
					<dim>128</dim>
					<dim>59</dim>
					<dim>79</dim>
				</port>
			</output>
			<blobs>
				<weights offset="2311200" size="65536"/>
				<biases offset="2376736" size="512"/>
			</blobs>
		</layer>
		<layer id="50" name="relu_conv15_2_bbox" precision="FP32" type="ReLU">
			<input>
				<port id="0">
					<dim>1</dim>
					<dim>128</dim>
					<dim>59</dim>
					<dim>79</dim>
				</port>
			</input>
			<output>
				<port id="1">
					<dim>1</dim>
					<dim>128</dim>
					<dim>59</dim>
					<dim>79</dim>
				</port>
			</output>
		</layer>
		<layer id="51" name="conv15_3_bbox" precision="FP32" type="Convolution">
			<data dilations="1,1" group="1" kernel="1,1" output="4" pads_begin="0,0" pads_end="0,0" strides="1,1"/>
			<input>
				<port id="0">
					<dim>1</dim>
					<dim>128</dim>
					<dim>59</dim>
					<dim>79</dim>
				</port>
			</input>
			<output>
				<port id="3">
					<dim>1</dim>
					<dim>4</dim>
					<dim>59</dim>
					<dim>79</dim>
				</port>
			</output>
			<blobs>
				<weights offset="2377248" size="2048"/>
				<biases offset="2379296" size="16"/>
			</blobs>
		</layer>
		<layer id="52" name="conv16" precision="FP32" type="Convolution">
			<data dilations="1,1" group="1" kernel="3,3" output="128" pads_begin="0,0" pads_end="0,0" strides="2,2"/>
			<input>
				<port id="0">
					<dim>1</dim>
					<dim>64</dim>
					<dim>59</dim>
					<dim>79</dim>
				</port>
			</input>
			<output>
				<port id="3">
					<dim>1</dim>
					<dim>128</dim>
					<dim>29</dim>
					<dim>39</dim>
				</port>
			</output>
			<blobs>
				<weights offset="2379312" size="294912"/>
				<biases offset="2674224" size="512"/>
			</blobs>
		</layer>
		<layer id="53" name="relu_conv16" precision="FP32" type="ReLU">
			<input>
				<port id="0">
					<dim>1</dim>
					<dim>128</dim>
					<dim>29</dim>
					<dim>39</dim>
				</port>
			</input>
			<output>
				<port id="1">
					<dim>1</dim>
					<dim>128</dim>
					<dim>29</dim>
					<dim>39</dim>
				</port>
			</output>
		</layer>
		<layer id="54" name="conv17" precision="FP32" type="Convolution">
			<data dilations="1,1" group="1" kernel="3,3" output="128" pads_begin="1,1" pads_end="1,1" strides="1,1"/>
			<input>
				<port id="0">
					<dim>1</dim>
					<dim>128</dim>
					<dim>29</dim>
					<dim>39</dim>
				</port>
			</input>
			<output>
				<port id="3">
					<dim>1</dim>
					<dim>128</dim>
					<dim>29</dim>
					<dim>39</dim>
				</port>
			</output>
			<blobs>
				<weights offset="2674736" size="589824"/>
				<biases offset="3264560" size="512"/>
			</blobs>
		</layer>
		<layer id="55" name="relu_conv17" precision="FP32" type="ReLU">
			<input>
				<port id="0">
					<dim>1</dim>
					<dim>128</dim>
					<dim>29</dim>
					<dim>39</dim>
				</port>
			</input>
			<output>
				<port id="1">
					<dim>1</dim>
					<dim>128</dim>
					<dim>29</dim>
					<dim>39</dim>
				</port>
			</output>
		</layer>
		<layer id="56" name="conv18" precision="FP32" type="Convolution">
			<data dilations="1,1" group="1" kernel="3,3" output="128" pads_begin="1,1" pads_end="1,1" strides="1,1"/>
			<input>
				<port id="0">
					<dim>1</dim>
					<dim>128</dim>
					<dim>29</dim>
					<dim>39</dim>
				</port>
			</input>
			<output>
				<port id="3">
					<dim>1</dim>
					<dim>128</dim>
					<dim>29</dim>
					<dim>39</dim>
				</port>
			</output>
			<blobs>
				<weights offset="3265072" size="589824"/>
				<biases offset="3854896" size="512"/>
			</blobs>
		</layer>
		<layer id="57" name="_plus16" precision="FP32" type="Eltwise">
			<data operation="sum"/>
			<input>
				<port id="0">
					<dim>1</dim>
					<dim>128</dim>
					<dim>29</dim>
					<dim>39</dim>
				</port>
				<port id="1">
					<dim>1</dim>
					<dim>128</dim>
					<dim>29</dim>
					<dim>39</dim>
				</port>
			</input>
			<output>
				<port id="2">
					<dim>1</dim>
					<dim>128</dim>
					<dim>29</dim>
					<dim>39</dim>
				</port>
			</output>
		</layer>
		<layer id="58" name="relu_conv18" precision="FP32" type="ReLU">
			<input>
				<port id="0">
					<dim>1</dim>
					<dim>128</dim>
					<dim>29</dim>
					<dim>39</dim>
				</port>
			</input>
			<output>
				<port id="1">
					<dim>1</dim>
					<dim>128</dim>
					<dim>29</dim>
					<dim>39</dim>
				</port>
			</output>
		</layer>
		<layer id="59" name="conv18_1" precision="FP32" type="Convolution">
			<data dilations="1,1" group="1" kernel="1,1" output="128" pads_begin="0,0" pads_end="0,0" strides="1,1"/>
			<input>
				<port id="0">
					<dim>1</dim>
					<dim>128</dim>
					<dim>29</dim>
					<dim>39</dim>
				</port>
			</input>
			<output>
				<port id="3">
					<dim>1</dim>
					<dim>128</dim>
					<dim>29</dim>
					<dim>39</dim>
				</port>
			</output>
			<blobs>
				<weights offset="3855408" size="65536"/>
				<biases offset="3920944" size="512"/>
			</blobs>
		</layer>
		<layer id="60" name="relu_conv18_1" precision="FP32" type="ReLU">
			<input>
				<port id="0">
					<dim>1</dim>
					<dim>128</dim>
					<dim>29</dim>
					<dim>39</dim>
				</port>
			</input>
			<output>
				<port id="1">
					<dim>1</dim>
					<dim>128</dim>
					<dim>29</dim>
					<dim>39</dim>
				</port>
			</output>
		</layer>
		<layer id="61" name="conv18_2_bbox" precision="FP32" type="Convolution">
			<data dilations="1,1" group="1" kernel="1,1" output="128" pads_begin="0,0" pads_end="0,0" strides="1,1"/>
			<input>
				<port id="0">
					<dim>1</dim>
					<dim>128</dim>
					<dim>29</dim>
					<dim>39</dim>
				</port>
			</input>
			<output>
				<port id="3">
					<dim>1</dim>
					<dim>128</dim>
					<dim>29</dim>
					<dim>39</dim>
				</port>
			</output>
			<blobs>
				<weights offset="3921456" size="65536"/>
				<biases offset="3986992" size="512"/>
			</blobs>
		</layer>
		<layer id="62" name="relu_conv18_2_bbox" precision="FP32" type="ReLU">
			<input>
				<port id="0">
					<dim>1</dim>
					<dim>128</dim>
					<dim>29</dim>
					<dim>39</dim>
				</port>
			</input>
			<output>
				<port id="1">
					<dim>1</dim>
					<dim>128</dim>
					<dim>29</dim>
					<dim>39</dim>
				</port>
			</output>
		</layer>
		<layer id="63" name="conv18_3_bbox" precision="FP32" type="Convolution">
			<data dilations="1,1" group="1" kernel="1,1" output="4" pads_begin="0,0" pads_end="0,0" strides="1,1"/>
			<input>
				<port id="0">
					<dim>1</dim>
					<dim>128</dim>
					<dim>29</dim>
					<dim>39</dim>
				</port>
			</input>
			<output>
				<port id="3">
					<dim>1</dim>
					<dim>4</dim>
					<dim>29</dim>
					<dim>39</dim>
				</port>
			</output>
			<blobs>
				<weights offset="3987504" size="2048"/>
				<biases offset="3989552" size="16"/>
			</blobs>
		</layer>
		<layer id="64" name="conv19" precision="FP32" type="Convolution">
			<data dilations="1,1" group="1" kernel="3,3" output="128" pads_begin="0,0" pads_end="0,0" strides="2,2"/>
			<input>
				<port id="0">
					<dim>1</dim>
					<dim>128</dim>
					<dim>29</dim>
					<dim>39</dim>
				</port>
			</input>
			<output>
				<port id="3">
					<dim>1</dim>
					<dim>128</dim>
					<dim>14</dim>
					<dim>19</dim>
				</port>
			</output>
			<blobs>
				<weights offset="3989568" size="589824"/>
				<biases offset="4579392" size="512"/>
			</blobs>
		</layer>
		<layer id="65" name="relu_conv19" precision="FP32" type="ReLU">
			<input>
				<port id="0">
					<dim>1</dim>
					<dim>128</dim>
					<dim>14</dim>
					<dim>19</dim>
				</port>
			</input>
			<output>
				<port id="1">
					<dim>1</dim>
					<dim>128</dim>
					<dim>14</dim>
					<dim>19</dim>
				</port>
			</output>
		</layer>
		<layer id="66" name="conv20" precision="FP32" type="Convolution">
			<data dilations="1,1" group="1" kernel="3,3" output="128" pads_begin="1,1" pads_end="1,1" strides="1,1"/>
			<input>
				<port id="0">
					<dim>1</dim>
					<dim>128</dim>
					<dim>14</dim>
					<dim>19</dim>
				</port>
			</input>
			<output>
				<port id="3">
					<dim>1</dim>
					<dim>128</dim>
					<dim>14</dim>
					<dim>19</dim>
				</port>
			</output>
			<blobs>
				<weights offset="4579904" size="589824"/>
				<biases offset="5169728" size="512"/>
			</blobs>
		</layer>
		<layer id="67" name="relu_conv20" precision="FP32" type="ReLU">
			<input>
				<port id="0">
					<dim>1</dim>
					<dim>128</dim>
					<dim>14</dim>
					<dim>19</dim>
				</port>
			</input>
			<output>
				<port id="1">
					<dim>1</dim>
					<dim>128</dim>
					<dim>14</dim>
					<dim>19</dim>
				</port>
			</output>
		</layer>
		<layer id="68" name="conv21" precision="FP32" type="Convolution">
			<data dilations="1,1" group="1" kernel="3,3" output="128" pads_begin="1,1" pads_end="1,1" strides="1,1"/>
			<input>
				<port id="0">
					<dim>1</dim>
					<dim>128</dim>
					<dim>14</dim>
					<dim>19</dim>
				</port>
			</input>
			<output>
				<port id="3">
					<dim>1</dim>
					<dim>128</dim>
					<dim>14</dim>
					<dim>19</dim>
				</port>
			</output>
			<blobs>
				<weights offset="5170240" size="589824"/>
				<biases offset="5760064" size="512"/>
			</blobs>
		</layer>
		<layer id="69" name="_plus17" precision="FP32" type="Eltwise">
			<data operation="sum"/>
			<input>
				<port id="0">
					<dim>1</dim>
					<dim>128</dim>
					<dim>14</dim>
					<dim>19</dim>
				</port>
				<port id="1">
					<dim>1</dim>
					<dim>128</dim>
					<dim>14</dim>
					<dim>19</dim>
				</port>
			</input>
			<output>
				<port id="2">
					<dim>1</dim>
					<dim>128</dim>
					<dim>14</dim>
					<dim>19</dim>
				</port>
			</output>
		</layer>
		<layer id="70" name="relu_conv21" precision="FP32" type="ReLU">
			<input>
				<port id="0">
					<dim>1</dim>
					<dim>128</dim>
					<dim>14</dim>
					<dim>19</dim>
				</port>
			</input>
			<output>
				<port id="1">
					<dim>1</dim>
					<dim>128</dim>
					<dim>14</dim>
					<dim>19</dim>
				</port>
			</output>
		</layer>
		<layer id="71" name="conv21_1" precision="FP32" type="Convolution">
			<data dilations="1,1" group="1" kernel="1,1" output="128" pads_begin="0,0" pads_end="0,0" strides="1,1"/>
			<input>
				<port id="0">
					<dim>1</dim>
					<dim>128</dim>
					<dim>14</dim>
					<dim>19</dim>
				</port>
			</input>
			<output>
				<port id="3">
					<dim>1</dim>
					<dim>128</dim>
					<dim>14</dim>
					<dim>19</dim>
				</port>
			</output>
			<blobs>
				<weights offset="5760576" size="65536"/>
				<biases offset="5826112" size="512"/>
			</blobs>
		</layer>
		<layer id="72" name="relu_conv21_1" precision="FP32" type="ReLU">
			<input>
				<port id="0">
					<dim>1</dim>
					<dim>128</dim>
					<dim>14</dim>
					<dim>19</dim>
				</port>
			</input>
			<output>
				<port id="1">
					<dim>1</dim>
					<dim>128</dim>
					<dim>14</dim>
					<dim>19</dim>
				</port>
			</output>
		</layer>
		<layer id="73" name="conv21_2_bbox" precision="FP32" type="Convolution">
			<data dilations="1,1" group="1" kernel="1,1" output="128" pads_begin="0,0" pads_end="0,0" strides="1,1"/>
			<input>
				<port id="0">
					<dim>1</dim>
					<dim>128</dim>
					<dim>14</dim>
					<dim>19</dim>
				</port>
			</input>
			<output>
				<port id="3">
					<dim>1</dim>
					<dim>128</dim>
					<dim>14</dim>
					<dim>19</dim>
				</port>
			</output>
			<blobs>
				<weights offset="5826624" size="65536"/>
				<biases offset="5892160" size="512"/>
			</blobs>
		</layer>
		<layer id="74" name="relu_conv21_2_bbox" precision="FP32" type="ReLU">
			<input>
				<port id="0">
					<dim>1</dim>
					<dim>128</dim>
					<dim>14</dim>
					<dim>19</dim>
				</port>
			</input>
			<output>
				<port id="1">
					<dim>1</dim>
					<dim>128</dim>
					<dim>14</dim>
					<dim>19</dim>
				</port>
			</output>
		</layer>
		<layer id="75" name="conv21_3_bbox" precision="FP32" type="Convolution">
			<data dilations="1,1" group="1" kernel="1,1" output="4" pads_begin="0,0" pads_end="0,0" strides="1,1"/>
			<input>
				<port id="0">
					<dim>1</dim>
					<dim>128</dim>
					<dim>14</dim>
					<dim>19</dim>
				</port>
			</input>
			<output>
				<port id="3">
					<dim>1</dim>
					<dim>4</dim>
					<dim>14</dim>
					<dim>19</dim>
				</port>
			</output>
			<blobs>
				<weights offset="5892672" size="2048"/>
				<biases offset="5894720" size="16"/>
			</blobs>
		</layer>
		<layer id="76" name="conv22" precision="FP32" type="Convolution">
			<data dilations="1,1" group="1" kernel="3,3" output="128" pads_begin="1,1" pads_end="1,1" strides="1,1"/>
			<input>
				<port id="0">
					<dim>1</dim>
					<dim>128</dim>
					<dim>14</dim>
					<dim>19</dim>
				</port>
			</input>
			<output>
				<port id="3">
					<dim>1</dim>
					<dim>128</dim>
					<dim>14</dim>
					<dim>19</dim>
				</port>
			</output>
			<blobs>
				<weights offset="5894736" size="589824"/>
				<biases offset="6484560" size="512"/>
			</blobs>
		</layer>
		<layer id="77" name="relu_conv22" precision="FP32" type="ReLU">
			<input>
				<port id="0">
					<dim>1</dim>
					<dim>128</dim>
					<dim>14</dim>
					<dim>19</dim>
				</port>
			</input>
			<output>
				<port id="1">
					<dim>1</dim>
					<dim>128</dim>
					<dim>14</dim>
					<dim>19</dim>
				</port>
			</output>
		</layer>
		<layer id="78" name="conv23" precision="FP32" type="Convolution">
			<data dilations="1,1" group="1" kernel="3,3" output="128" pads_begin="1,1" pads_end="1,1" strides="1,1"/>
			<input>
				<port id="0">
					<dim>1</dim>
					<dim>128</dim>
					<dim>14</dim>
					<dim>19</dim>
				</port>
			</input>
			<output>
				<port id="3">
					<dim>1</dim>
					<dim>128</dim>
					<dim>14</dim>
					<dim>19</dim>
				</port>
			</output>
			<blobs>
				<weights offset="6485072" size="589824"/>
				<biases offset="7074896" size="512"/>
			</blobs>
		</layer>
		<layer id="79" name="_plus18" precision="FP32" type="Eltwise">
			<data operation="sum"/>
			<input>
				<port id="0">
					<dim>1</dim>
					<dim>128</dim>
					<dim>14</dim>
					<dim>19</dim>
				</port>
				<port id="1">
					<dim>1</dim>
					<dim>128</dim>
					<dim>14</dim>
					<dim>19</dim>
				</port>
			</input>
			<output>
				<port id="2">
					<dim>1</dim>
					<dim>128</dim>
					<dim>14</dim>
					<dim>19</dim>
				</port>
			</output>
		</layer>
		<layer id="80" name="relu_conv23" precision="FP32" type="ReLU">
			<input>
				<port id="0">
					<dim>1</dim>
					<dim>128</dim>
					<dim>14</dim>
					<dim>19</dim>
				</port>
			</input>
			<output>
				<port id="1">
					<dim>1</dim>
					<dim>128</dim>
					<dim>14</dim>
					<dim>19</dim>
				</port>
			</output>
		</layer>
		<layer id="81" name="conv23_1" precision="FP32" type="Convolution">
			<data dilations="1,1" group="1" kernel="1,1" output="128" pads_begin="0,0" pads_end="0,0" strides="1,1"/>
			<input>
				<port id="0">
					<dim>1</dim>
					<dim>128</dim>
					<dim>14</dim>
					<dim>19</dim>
				</port>
			</input>
			<output>
				<port id="3">
					<dim>1</dim>
					<dim>128</dim>
					<dim>14</dim>
					<dim>19</dim>
				</port>
			</output>
			<blobs>
				<weights offset="7075408" size="65536"/>
				<biases offset="7140944" size="512"/>
			</blobs>
		</layer>
		<layer id="82" name="relu_conv23_1" precision="FP32" type="ReLU">
			<input>
				<port id="0">
					<dim>1</dim>
					<dim>128</dim>
					<dim>14</dim>
					<dim>19</dim>
				</port>
			</input>
			<output>
				<port id="1">
					<dim>1</dim>
					<dim>128</dim>
					<dim>14</dim>
					<dim>19</dim>
				</port>
			</output>
		</layer>
		<layer id="83" name="conv23_2_bbox" precision="FP32" type="Convolution">
			<data dilations="1,1" group="1" kernel="1,1" output="128" pads_begin="0,0" pads_end="0,0" strides="1,1"/>
			<input>
				<port id="0">
					<dim>1</dim>
					<dim>128</dim>
					<dim>14</dim>
					<dim>19</dim>
				</port>
			</input>
			<output>
				<port id="3">
					<dim>1</dim>
					<dim>128</dim>
					<dim>14</dim>
					<dim>19</dim>
				</port>
			</output>
			<blobs>
				<weights offset="7141456" size="65536"/>
				<biases offset="7206992" size="512"/>
			</blobs>
		</layer>
		<layer id="84" name="relu_conv23_2_bbox" precision="FP32" type="ReLU">
			<input>
				<port id="0">
					<dim>1</dim>
					<dim>128</dim>
					<dim>14</dim>
					<dim>19</dim>
				</port>
			</input>
			<output>
				<port id="1">
					<dim>1</dim>
					<dim>128</dim>
					<dim>14</dim>
					<dim>19</dim>
				</port>
			</output>
		</layer>
		<layer id="85" name="conv23_3_bbox" precision="FP32" type="Convolution">
			<data dilations="1,1" group="1" kernel="1,1" output="4" pads_begin="0,0" pads_end="0,0" strides="1,1"/>
			<input>
				<port id="0">
					<dim>1</dim>
					<dim>128</dim>
					<dim>14</dim>
					<dim>19</dim>
				</port>
			</input>
			<output>
				<port id="3">
					<dim>1</dim>
					<dim>4</dim>
					<dim>14</dim>
					<dim>19</dim>
				</port>
			</output>
			<blobs>
				<weights offset="7207504" size="2048"/>
				<biases offset="7209552" size="16"/>
			</blobs>
		</layer>
		<layer id="86" name="conv24" precision="FP32" type="Convolution">
			<data dilations="1,1" group="1" kernel="3,3" output="128" pads_begin="1,1" pads_end="1,1" strides="1,1"/>
			<input>
				<port id="0">
					<dim>1</dim>
					<dim>128</dim>
					<dim>14</dim>
					<dim>19</dim>
				</port>
			</input>
			<output>
				<port id="3">
					<dim>1</dim>
					<dim>128</dim>
					<dim>14</dim>
					<dim>19</dim>
				</port>
			</output>
			<blobs>
				<weights offset="7209568" size="589824"/>
				<biases offset="7799392" size="512"/>
			</blobs>
		</layer>
		<layer id="87" name="relu_conv24" precision="FP32" type="ReLU">
			<input>
				<port id="0">
					<dim>1</dim>
					<dim>128</dim>
					<dim>14</dim>
					<dim>19</dim>
				</port>
			</input>
			<output>
				<port id="1">
					<dim>1</dim>
					<dim>128</dim>
					<dim>14</dim>
					<dim>19</dim>
				</port>
			</output>
		</layer>
		<layer id="88" name="conv25" precision="FP32" type="Convolution">
			<data dilations="1,1" group="1" kernel="3,3" output="128" pads_begin="1,1" pads_end="1,1" strides="1,1"/>
			<input>
				<port id="0">
					<dim>1</dim>
					<dim>128</dim>
					<dim>14</dim>
					<dim>19</dim>
				</port>
			</input>
			<output>
				<port id="3">
					<dim>1</dim>
					<dim>128</dim>
					<dim>14</dim>
					<dim>19</dim>
				</port>
			</output>
			<blobs>
				<weights offset="7799904" size="589824"/>
				<biases offset="8389728" size="512"/>
			</blobs>
		</layer>
		<layer id="89" name="_plus19" precision="FP32" type="Eltwise">
			<data operation="sum"/>
			<input>
				<port id="0">
					<dim>1</dim>
					<dim>128</dim>
					<dim>14</dim>
					<dim>19</dim>
				</port>
				<port id="1">
					<dim>1</dim>
					<dim>128</dim>
					<dim>14</dim>
					<dim>19</dim>
				</port>
			</input>
			<output>
				<port id="2">
					<dim>1</dim>
					<dim>128</dim>
					<dim>14</dim>
					<dim>19</dim>
				</port>
			</output>
		</layer>
		<layer id="90" name="relu_conv25" precision="FP32" type="ReLU">
			<input>
				<port id="0">
					<dim>1</dim>
					<dim>128</dim>
					<dim>14</dim>
					<dim>19</dim>
				</port>
			</input>
			<output>
				<port id="1">
					<dim>1</dim>
					<dim>128</dim>
					<dim>14</dim>
					<dim>19</dim>
				</port>
			</output>
		</layer>
		<layer id="91" name="conv25_1" precision="FP32" type="Convolution">
			<data dilations="1,1" group="1" kernel="1,1" output="128" pads_begin="0,0" pads_end="0,0" strides="1,1"/>
			<input>
				<port id="0">
					<dim>1</dim>
					<dim>128</dim>
					<dim>14</dim>
					<dim>19</dim>
				</port>
			</input>
			<output>
				<port id="3">
					<dim>1</dim>
					<dim>128</dim>
					<dim>14</dim>
					<dim>19</dim>
				</port>
			</output>
			<blobs>
				<weights offset="8390240" size="65536"/>
				<biases offset="8455776" size="512"/>
			</blobs>
		</layer>
		<layer id="92" name="relu_conv25_1" precision="FP32" type="ReLU">
			<input>
				<port id="0">
					<dim>1</dim>
					<dim>128</dim>
					<dim>14</dim>
					<dim>19</dim>
				</port>
			</input>
			<output>
				<port id="1">
					<dim>1</dim>
					<dim>128</dim>
					<dim>14</dim>
					<dim>19</dim>
				</port>
			</output>
		</layer>
		<layer id="93" name="conv25_2_bbox" precision="FP32" type="Convolution">
			<data dilations="1,1" group="1" kernel="1,1" output="128" pads_begin="0,0" pads_end="0,0" strides="1,1"/>
			<input>
				<port id="0">
					<dim>1</dim>
					<dim>128</dim>
					<dim>14</dim>
					<dim>19</dim>
				</port>
			</input>
			<output>
				<port id="3">
					<dim>1</dim>
					<dim>128</dim>
					<dim>14</dim>
					<dim>19</dim>
				</port>
			</output>
			<blobs>
				<weights offset="8456288" size="65536"/>
				<biases offset="8521824" size="512"/>
			</blobs>
		</layer>
		<layer id="94" name="relu_conv25_2_bbox" precision="FP32" type="ReLU">
			<input>
				<port id="0">
					<dim>1</dim>
					<dim>128</dim>
					<dim>14</dim>
					<dim>19</dim>
				</port>
			</input>
			<output>
				<port id="1">
					<dim>1</dim>
					<dim>128</dim>
					<dim>14</dim>
					<dim>19</dim>
				</port>
			</output>
		</layer>
		<layer id="95" name="conv25_3_bbox" precision="FP32" type="Convolution">
			<data dilations="1,1" group="1" kernel="1,1" output="4" pads_begin="0,0" pads_end="0,0" strides="1,1"/>
			<input>
				<port id="0">
					<dim>1</dim>
					<dim>128</dim>
					<dim>14</dim>
					<dim>19</dim>
				</port>
			</input>
			<output>
				<port id="3">
					<dim>1</dim>
					<dim>4</dim>
					<dim>14</dim>
					<dim>19</dim>
				</port>
			</output>
			<blobs>
				<weights offset="8522336" size="2048"/>
				<biases offset="8524384" size="16"/>
			</blobs>
		</layer>
		<layer id="96" name="conv8_1" precision="FP32" type="Convolution">
			<data dilations="1,1" group="1" kernel="1,1" output="128" pads_begin="0,0" pads_end="0,0" strides="1,1"/>
			<input>
				<port id="0">
					<dim>1</dim>
					<dim>64</dim>
					<dim>119</dim>
					<dim>159</dim>
				</port>
			</input>
			<output>
				<port id="3">
					<dim>1</dim>
					<dim>128</dim>
					<dim>119</dim>
					<dim>159</dim>
				</port>
			</output>
			<blobs>
				<weights offset="8524400" size="32768"/>
				<biases offset="8557168" size="512"/>
			</blobs>
		</layer>
		<layer id="97" name="relu_conv8_1" precision="FP32" type="ReLU">
			<input>
				<port id="0">
					<dim>1</dim>
					<dim>128</dim>
					<dim>119</dim>
					<dim>159</dim>
				</port>
			</input>
			<output>
				<port id="1">
					<dim>1</dim>
					<dim>128</dim>
					<dim>119</dim>
					<dim>159</dim>
				</port>
			</output>
		</layer>
		<layer id="98" name="conv8_2_bbox" precision="FP32" type="Convolution">
			<data dilations="1,1" group="1" kernel="1,1" output="128" pads_begin="0,0" pads_end="0,0" strides="1,1"/>
			<input>
				<port id="0">
					<dim>1</dim>
					<dim>128</dim>
					<dim>119</dim>
					<dim>159</dim>
				</port>
			</input>
			<output>
				<port id="3">
					<dim>1</dim>
					<dim>128</dim>
					<dim>119</dim>
					<dim>159</dim>
				</port>
			</output>
			<blobs>
				<weights offset="8557680" size="65536"/>
				<biases offset="8623216" size="512"/>
			</blobs>
		</layer>
		<layer id="99" name="relu_conv8_2_bbox" precision="FP32" type="ReLU">
			<input>
				<port id="0">
					<dim>1</dim>
					<dim>128</dim>
					<dim>119</dim>
					<dim>159</dim>
				</port>
			</input>
			<output>
				<port id="1">
					<dim>1</dim>
					<dim>128</dim>
					<dim>119</dim>
					<dim>159</dim>
				</port>
			</output>
		</layer>
		<layer id="100" name="conv8_3_bbox" precision="FP32" type="Convolution">
			<data dilations="1,1" group="1" kernel="1,1" output="4" pads_begin="0,0" pads_end="0,0" strides="1,1"/>
			<input>
				<port id="0">
					<dim>1</dim>
					<dim>128</dim>
					<dim>119</dim>
					<dim>159</dim>
				</port>
			</input>
			<output>
				<port id="3">
					<dim>1</dim>
					<dim>4</dim>
					<dim>119</dim>
					<dim>159</dim>
				</port>
			</output>
			<blobs>
				<weights offset="8623728" size="2048"/>
				<biases offset="8625776" size="16"/>
			</blobs>
		</layer>
		<layer id="101" name="conv8_2_score" precision="FP32" type="Convolution">
			<data dilations="1,1" group="1" kernel="1,1" output="128" pads_begin="0,0" pads_end="0,0" strides="1,1"/>
			<input>
				<port id="0">
					<dim>1</dim>
					<dim>128</dim>
					<dim>119</dim>
					<dim>159</dim>
				</port>
			</input>
			<output>
				<port id="3">
					<dim>1</dim>
					<dim>128</dim>
					<dim>119</dim>
					<dim>159</dim>
				</port>
			</output>
			<blobs>
				<weights offset="8625792" size="65536"/>
				<biases offset="8691328" size="512"/>
			</blobs>
		</layer>
		<layer id="102" name="relu_conv8_2_score" precision="FP32" type="ReLU">
			<input>
				<port id="0">
					<dim>1</dim>
					<dim>128</dim>
					<dim>119</dim>
					<dim>159</dim>
				</port>
			</input>
			<output>
				<port id="1">
					<dim>1</dim>
					<dim>128</dim>
					<dim>119</dim>
					<dim>159</dim>
				</port>
			</output>
		</layer>
		<layer id="103" name="conv8_3_score" precision="FP32" type="Convolution">
			<data dilations="1,1" group="1" kernel="1,1" output="2" pads_begin="0,0" pads_end="0,0" strides="1,1"/>
			<input>
				<port id="0">
					<dim>1</dim>
					<dim>128</dim>
					<dim>119</dim>
					<dim>159</dim>
				</port>
			</input>
			<output>
				<port id="3">
					<dim>1</dim>
					<dim>2</dim>
					<dim>119</dim>
					<dim>159</dim>
				</port>
			</output>
			<blobs>
				<weights offset="8691840" size="1024"/>
				<biases offset="8692864" size="8"/>
			</blobs>
		</layer>
		<layer id="104" name="softmax0" precision="FP32" type="SoftMax">
			<data axis="1"/>
			<input>
				<port id="0">
					<dim>1</dim>
					<dim>2</dim>
					<dim>119</dim>
					<dim>159</dim>
				</port>
			</input>
			<output>
				<port id="1">
					<dim>1</dim>
					<dim>2</dim>
					<dim>119</dim>
					<dim>159</dim>
				</port>
			</output>
		</layer>
		<layer id="105" name="conv10_2_score" precision="FP32" type="Convolution">
			<data dilations="1,1" group="1" kernel="1,1" output="128" pads_begin="0,0" pads_end="0,0" strides="1,1"/>
			<input>
				<port id="0">
					<dim>1</dim>
					<dim>128</dim>
					<dim>119</dim>
					<dim>159</dim>
				</port>
			</input>
			<output>
				<port id="3">
					<dim>1</dim>
					<dim>128</dim>
					<dim>119</dim>
					<dim>159</dim>
				</port>
			</output>
			<blobs>
				<weights offset="8692872" size="65536"/>
				<biases offset="8758408" size="512"/>
			</blobs>
		</layer>
		<layer id="106" name="relu_conv10_2_score" precision="FP32" type="ReLU">
			<input>
				<port id="0">
					<dim>1</dim>
					<dim>128</dim>
					<dim>119</dim>
					<dim>159</dim>
				</port>
			</input>
			<output>
				<port id="1">
					<dim>1</dim>
					<dim>128</dim>
					<dim>119</dim>
					<dim>159</dim>
				</port>
			</output>
		</layer>
		<layer id="107" name="conv10_3_score" precision="FP32" type="Convolution">
			<data dilations="1,1" group="1" kernel="1,1" output="2" pads_begin="0,0" pads_end="0,0" strides="1,1"/>
			<input>
				<port id="0">
					<dim>1</dim>
					<dim>128</dim>
					<dim>119</dim>
					<dim>159</dim>
				</port>
			</input>
			<output>
				<port id="3">
					<dim>1</dim>
					<dim>2</dim>
					<dim>119</dim>
					<dim>159</dim>
				</port>
			</output>
			<blobs>
				<weights offset="8758920" size="1024"/>
				<biases offset="8759944" size="8"/>
			</blobs>
		</layer>
		<layer id="108" name="softmax1" precision="FP32" type="SoftMax">
			<data axis="1"/>
			<input>
				<port id="0">
					<dim>1</dim>
					<dim>2</dim>
					<dim>119</dim>
					<dim>159</dim>
				</port>
			</input>
			<output>
				<port id="1">
					<dim>1</dim>
					<dim>2</dim>
					<dim>119</dim>
					<dim>159</dim>
				</port>
			</output>
		</layer>
		<layer id="109" name="conv13_2_score" precision="FP32" type="Convolution">
			<data dilations="1,1" group="1" kernel="1,1" output="128" pads_begin="0,0" pads_end="0,0" strides="1,1"/>
			<input>
				<port id="0">
					<dim>1</dim>
					<dim>128</dim>
					<dim>59</dim>
					<dim>79</dim>
				</port>
			</input>
			<output>
				<port id="3">
					<dim>1</dim>
					<dim>128</dim>
					<dim>59</dim>
					<dim>79</dim>
				</port>
			</output>
			<blobs>
				<weights offset="8759952" size="65536"/>
				<biases offset="8825488" size="512"/>
			</blobs>
		</layer>
		<layer id="110" name="relu_conv13_2_score" precision="FP32" type="ReLU">
			<input>
				<port id="0">
					<dim>1</dim>
					<dim>128</dim>
					<dim>59</dim>
					<dim>79</dim>
				</port>
			</input>
			<output>
				<port id="1">
					<dim>1</dim>
					<dim>128</dim>
					<dim>59</dim>
					<dim>79</dim>
				</port>
			</output>
		</layer>
		<layer id="111" name="conv13_3_score" precision="FP32" type="Convolution">
			<data dilations="1,1" group="1" kernel="1,1" output="2" pads_begin="0,0" pads_end="0,0" strides="1,1"/>
			<input>
				<port id="0">
					<dim>1</dim>
					<dim>128</dim>
					<dim>59</dim>
					<dim>79</dim>
				</port>
			</input>
			<output>
				<port id="3">
					<dim>1</dim>
					<dim>2</dim>
					<dim>59</dim>
					<dim>79</dim>
				</port>
			</output>
			<blobs>
				<weights offset="8826000" size="1024"/>
				<biases offset="8827024" size="8"/>
			</blobs>
		</layer>
		<layer id="112" name="softmax2" precision="FP32" type="SoftMax">
			<data axis="1"/>
			<input>
				<port id="0">
					<dim>1</dim>
					<dim>2</dim>
					<dim>59</dim>
					<dim>79</dim>
				</port>
			</input>
			<output>
				<port id="1">
					<dim>1</dim>
					<dim>2</dim>
					<dim>59</dim>
					<dim>79</dim>
				</port>
			</output>
		</layer>
		<layer id="113" name="conv15_2_score" precision="FP32" type="Convolution">
			<data dilations="1,1" group="1" kernel="1,1" output="128" pads_begin="0,0" pads_end="0,0" strides="1,1"/>
			<input>
				<port id="0">
					<dim>1</dim>
					<dim>128</dim>
					<dim>59</dim>
					<dim>79</dim>
				</port>
			</input>
			<output>
				<port id="3">
					<dim>1</dim>
					<dim>128</dim>
					<dim>59</dim>
					<dim>79</dim>
				</port>
			</output>
			<blobs>
				<weights offset="8827032" size="65536"/>
				<biases offset="8892568" size="512"/>
			</blobs>
		</layer>
		<layer id="114" name="relu_conv15_2_score" precision="FP32" type="ReLU">
			<input>
				<port id="0">
					<dim>1</dim>
					<dim>128</dim>
					<dim>59</dim>
					<dim>79</dim>
				</port>
			</input>
			<output>
				<port id="1">
					<dim>1</dim>
					<dim>128</dim>
					<dim>59</dim>
					<dim>79</dim>
				</port>
			</output>
		</layer>
		<layer id="115" name="conv15_3_score" precision="FP32" type="Convolution">
			<data dilations="1,1" group="1" kernel="1,1" output="2" pads_begin="0,0" pads_end="0,0" strides="1,1"/>
			<input>
				<port id="0">
					<dim>1</dim>
					<dim>128</dim>
					<dim>59</dim>
					<dim>79</dim>
				</port>
			</input>
			<output>
				<port id="3">
					<dim>1</dim>
					<dim>2</dim>
					<dim>59</dim>
					<dim>79</dim>
				</port>
			</output>
			<blobs>
				<weights offset="8893080" size="1024"/>
				<biases offset="8894104" size="8"/>
			</blobs>
		</layer>
		<layer id="116" name="softmax3" precision="FP32" type="SoftMax">
			<data axis="1"/>
			<input>
				<port id="0">
					<dim>1</dim>
					<dim>2</dim>
					<dim>59</dim>
					<dim>79</dim>
				</port>
			</input>
			<output>
				<port id="1">
					<dim>1</dim>
					<dim>2</dim>
					<dim>59</dim>
					<dim>79</dim>
				</port>
			</output>
		</layer>
		<layer id="117" name="conv18_2_score" precision="FP32" type="Convolution">
			<data dilations="1,1" group="1" kernel="1,1" output="128" pads_begin="0,0" pads_end="0,0" strides="1,1"/>
			<input>
				<port id="0">
					<dim>1</dim>
					<dim>128</dim>
					<dim>29</dim>
					<dim>39</dim>
				</port>
			</input>
			<output>
				<port id="3">
					<dim>1</dim>
					<dim>128</dim>
					<dim>29</dim>
					<dim>39</dim>
				</port>
			</output>
			<blobs>
				<weights offset="8894112" size="65536"/>
				<biases offset="8959648" size="512"/>
			</blobs>
		</layer>
		<layer id="118" name="relu_conv18_2_score" precision="FP32" type="ReLU">
			<input>
				<port id="0">
					<dim>1</dim>
					<dim>128</dim>
					<dim>29</dim>
					<dim>39</dim>
				</port>
			</input>
			<output>
				<port id="1">
					<dim>1</dim>
					<dim>128</dim>
					<dim>29</dim>
					<dim>39</dim>
				</port>
			</output>
		</layer>
		<layer id="119" name="conv18_3_score" precision="FP32" type="Convolution">
			<data dilations="1,1" group="1" kernel="1,1" output="2" pads_begin="0,0" pads_end="0,0" strides="1,1"/>
			<input>
				<port id="0">
					<dim>1</dim>
					<dim>128</dim>
					<dim>29</dim>
					<dim>39</dim>
				</port>
			</input>
			<output>
				<port id="3">
					<dim>1</dim>
					<dim>2</dim>
					<dim>29</dim>
					<dim>39</dim>
				</port>
			</output>
			<blobs>
				<weights offset="8960160" size="1024"/>
				<biases offset="8961184" size="8"/>
			</blobs>
		</layer>
		<layer id="120" name="softmax4" precision="FP32" type="SoftMax">
			<data axis="1"/>
			<input>
				<port id="0">
					<dim>1</dim>
					<dim>2</dim>
					<dim>29</dim>
					<dim>39</dim>
				</port>
			</input>
			<output>
				<port id="1">
					<dim>1</dim>
					<dim>2</dim>
					<dim>29</dim>
					<dim>39</dim>
				</port>
			</output>
		</layer>
		<layer id="121" name="conv21_2_score" precision="FP32" type="Convolution">
			<data dilations="1,1" group="1" kernel="1,1" output="128" pads_begin="0,0" pads_end="0,0" strides="1,1"/>
			<input>
				<port id="0">
					<dim>1</dim>
					<dim>128</dim>
					<dim>14</dim>
					<dim>19</dim>
				</port>
			</input>
			<output>
				<port id="3">
					<dim>1</dim>
					<dim>128</dim>
					<dim>14</dim>
					<dim>19</dim>
				</port>
			</output>
			<blobs>
				<weights offset="8961192" size="65536"/>
				<biases offset="9026728" size="512"/>
			</blobs>
		</layer>
		<layer id="122" name="relu_conv21_2_score" precision="FP32" type="ReLU">
			<input>
				<port id="0">
					<dim>1</dim>
					<dim>128</dim>
					<dim>14</dim>
					<dim>19</dim>
				</port>
			</input>
			<output>
				<port id="1">
					<dim>1</dim>
					<dim>128</dim>
					<dim>14</dim>
					<dim>19</dim>
				</port>
			</output>
		</layer>
		<layer id="123" name="conv21_3_score" precision="FP32" type="Convolution">
			<data dilations="1,1" group="1" kernel="1,1" output="2" pads_begin="0,0" pads_end="0,0" strides="1,1"/>
			<input>
				<port id="0">
					<dim>1</dim>
					<dim>128</dim>
					<dim>14</dim>
					<dim>19</dim>
				</port>
			</input>
			<output>
				<port id="3">
					<dim>1</dim>
					<dim>2</dim>
					<dim>14</dim>
					<dim>19</dim>
				</port>
			</output>
			<blobs>
				<weights offset="9027240" size="1024"/>
				<biases offset="9028264" size="8"/>
			</blobs>
		</layer>
		<layer id="124" name="softmax5" precision="FP32" type="SoftMax">
			<data axis="1"/>
			<input>
				<port id="0">
					<dim>1</dim>
					<dim>2</dim>
					<dim>14</dim>
					<dim>19</dim>
				</port>
			</input>
			<output>
				<port id="1">
					<dim>1</dim>
					<dim>2</dim>
					<dim>14</dim>
					<dim>19</dim>
				</port>
			</output>
		</layer>
		<layer id="125" name="conv23_2_score" precision="FP32" type="Convolution">
			<data dilations="1,1" group="1" kernel="1,1" output="128" pads_begin="0,0" pads_end="0,0" strides="1,1"/>
			<input>
				<port id="0">
					<dim>1</dim>
					<dim>128</dim>
					<dim>14</dim>
					<dim>19</dim>
				</port>
			</input>
			<output>
				<port id="3">
					<dim>1</dim>
					<dim>128</dim>
					<dim>14</dim>
					<dim>19</dim>
				</port>
			</output>
			<blobs>
				<weights offset="9028272" size="65536"/>
				<biases offset="9093808" size="512"/>
			</blobs>
		</layer>
		<layer id="126" name="relu_conv23_2_score" precision="FP32" type="ReLU">
			<input>
				<port id="0">
					<dim>1</dim>
					<dim>128</dim>
					<dim>14</dim>
					<dim>19</dim>
				</port>
			</input>
			<output>
				<port id="1">
					<dim>1</dim>
					<dim>128</dim>
					<dim>14</dim>
					<dim>19</dim>
				</port>
			</output>
		</layer>
		<layer id="127" name="conv23_3_score" precision="FP32" type="Convolution">
			<data dilations="1,1" group="1" kernel="1,1" output="2" pads_begin="0,0" pads_end="0,0" strides="1,1"/>
			<input>
				<port id="0">
					<dim>1</dim>
					<dim>128</dim>
					<dim>14</dim>
					<dim>19</dim>
				</port>
			</input>
			<output>
				<port id="3">
					<dim>1</dim>
					<dim>2</dim>
					<dim>14</dim>
					<dim>19</dim>
				</port>
			</output>
			<blobs>
				<weights offset="9094320" size="1024"/>
				<biases offset="9095344" size="8"/>
			</blobs>
		</layer>
		<layer id="128" name="softmax6" precision="FP32" type="SoftMax">
			<data axis="1"/>
			<input>
				<port id="0">
					<dim>1</dim>
					<dim>2</dim>
					<dim>14</dim>
					<dim>19</dim>
				</port>
			</input>
			<output>
				<port id="1">
					<dim>1</dim>
					<dim>2</dim>
					<dim>14</dim>
					<dim>19</dim>
				</port>
			</output>
		</layer>
		<layer id="129" name="conv25_2_score" precision="FP32" type="Convolution">
			<data dilations="1,1" group="1" kernel="1,1" output="128" pads_begin="0,0" pads_end="0,0" strides="1,1"/>
			<input>
				<port id="0">
					<dim>1</dim>
					<dim>128</dim>
					<dim>14</dim>
					<dim>19</dim>
				</port>
			</input>
			<output>
				<port id="3">
					<dim>1</dim>
					<dim>128</dim>
					<dim>14</dim>
					<dim>19</dim>
				</port>
			</output>
			<blobs>
				<weights offset="9095352" size="65536"/>
				<biases offset="9160888" size="512"/>
			</blobs>
		</layer>
		<layer id="130" name="relu_conv25_2_score" precision="FP32" type="ReLU">
			<input>
				<port id="0">
					<dim>1</dim>
					<dim>128</dim>
					<dim>14</dim>
					<dim>19</dim>
				</port>
			</input>
			<output>
				<port id="1">
					<dim>1</dim>
					<dim>128</dim>
					<dim>14</dim>
					<dim>19</dim>
				</port>
			</output>
		</layer>
		<layer id="131" name="conv25_3_score" precision="FP32" type="Convolution">
			<data dilations="1,1" group="1" kernel="1,1" output="2" pads_begin="0,0" pads_end="0,0" strides="1,1"/>
			<input>
				<port id="0">
					<dim>1</dim>
					<dim>128</dim>
					<dim>14</dim>
					<dim>19</dim>
				</port>
			</input>
			<output>
				<port id="3">
					<dim>1</dim>
					<dim>2</dim>
					<dim>14</dim>
					<dim>19</dim>
				</port>
			</output>
			<blobs>
				<weights offset="9161400" size="1024"/>
				<biases offset="9162424" size="8"/>
			</blobs>
		</layer>
		<layer id="132" name="softmax7" precision="FP32" type="SoftMax">
			<data axis="1"/>
			<input>
				<port id="0">
					<dim>1</dim>
					<dim>2</dim>
					<dim>14</dim>
					<dim>19</dim>
				</port>
			</input>
			<output>
				<port id="1">
					<dim>1</dim>
					<dim>2</dim>
					<dim>14</dim>
					<dim>19</dim>
				</port>
			</output>
		</layer>
	</layers>
	<edges>
		<edge from-layer="0" from-port="0" to-layer="1" to-port="0"/>
		<edge from-layer="1" from-port="3" to-layer="2" to-port="0"/>
		<edge from-layer="2" from-port="1" to-layer="3" to-port="0"/>
		<edge from-layer="3" from-port="3" to-layer="4" to-port="0"/>
		<edge from-layer="4" from-port="1" to-layer="5" to-port="0"/>
		<edge from-layer="5" from-port="3" to-layer="6" to-port="0"/>
		<edge from-layer="6" from-port="1" to-layer="7" to-port="0"/>
		<edge from-layer="3" from-port="3" to-layer="8" to-port="0"/>
		<edge from-layer="7" from-port="3" to-layer="8" to-port="1"/>
		<edge from-layer="8" from-port="2" to-layer="9" to-port="0"/>
		<edge from-layer="9" from-port="1" to-layer="10" to-port="0"/>
		<edge from-layer="10" from-port="3" to-layer="11" to-port="0"/>
		<edge from-layer="11" from-port="1" to-layer="12" to-port="0"/>
		<edge from-layer="8" from-port="2" to-layer="13" to-port="0"/>
		<edge from-layer="12" from-port="3" to-layer="13" to-port="1"/>
		<edge from-layer="13" from-port="2" to-layer="14" to-port="0"/>
		<edge from-layer="14" from-port="1" to-layer="15" to-port="0"/>
		<edge from-layer="15" from-port="3" to-layer="16" to-port="0"/>
		<edge from-layer="16" from-port="1" to-layer="17" to-port="0"/>
		<edge from-layer="13" from-port="2" to-layer="18" to-port="0"/>
		<edge from-layer="17" from-port="3" to-layer="18" to-port="1"/>
		<edge from-layer="18" from-port="2" to-layer="19" to-port="0"/>
		<edge from-layer="19" from-port="1" to-layer="20" to-port="0"/>
		<edge from-layer="20" from-port="3" to-layer="21" to-port="0"/>
		<edge from-layer="21" from-port="1" to-layer="22" to-port="0"/>
		<edge from-layer="18" from-port="2" to-layer="23" to-port="0"/>
		<edge from-layer="22" from-port="3" to-layer="23" to-port="1"/>
		<edge from-layer="23" from-port="2" to-layer="24" to-port="0"/>
		<edge from-layer="24" from-port="1" to-layer="25" to-port="0"/>
		<edge from-layer="25" from-port="3" to-layer="26" to-port="0"/>
		<edge from-layer="26" from-port="1" to-layer="27" to-port="0"/>
		<edge from-layer="27" from-port="3" to-layer="28" to-port="0"/>
		<edge from-layer="28" from-port="1" to-layer="29" to-port="0"/>
		<edge from-layer="24" from-port="1" to-layer="30" to-port="0"/>
		<edge from-layer="30" from-port="3" to-layer="31" to-port="0"/>
		<edge from-layer="31" from-port="1" to-layer="32" to-port="0"/>
		<edge from-layer="32" from-port="3" to-layer="33" to-port="0"/>
		<edge from-layer="33" from-port="1" to-layer="34" to-port="0"/>
		<edge from-layer="30" from-port="3" to-layer="35" to-port="0"/>
		<edge from-layer="34" from-port="3" to-layer="35" to-port="1"/>
		<edge from-layer="35" from-port="2" to-layer="36" to-port="0"/>
		<edge from-layer="36" from-port="1" to-layer="37" to-port="0"/>
		<edge from-layer="37" from-port="3" to-layer="38" to-port="0"/>
		<edge from-layer="38" from-port="1" to-layer="39" to-port="0"/>
		<edge from-layer="39" from-port="3" to-layer="40" to-port="0"/>
		<edge from-layer="40" from-port="1" to-layer="41" to-port="0"/>
		<edge from-layer="36" from-port="1" to-layer="42" to-port="0"/>
		<edge from-layer="42" from-port="3" to-layer="43" to-port="0"/>
		<edge from-layer="43" from-port="1" to-layer="44" to-port="0"/>
		<edge from-layer="35" from-port="2" to-layer="45" to-port="0"/>
		<edge from-layer="44" from-port="3" to-layer="45" to-port="1"/>
		<edge from-layer="45" from-port="2" to-layer="46" to-port="0"/>
		<edge from-layer="46" from-port="1" to-layer="47" to-port="0"/>
		<edge from-layer="47" from-port="3" to-layer="48" to-port="0"/>
		<edge from-layer="48" from-port="1" to-layer="49" to-port="0"/>
		<edge from-layer="49" from-port="3" to-layer="50" to-port="0"/>
		<edge from-layer="50" from-port="1" to-layer="51" to-port="0"/>
		<edge from-layer="46" from-port="1" to-layer="52" to-port="0"/>
		<edge from-layer="52" from-port="3" to-layer="53" to-port="0"/>
		<edge from-layer="53" from-port="1" to-layer="54" to-port="0"/>
		<edge from-layer="54" from-port="3" to-layer="55" to-port="0"/>
		<edge from-layer="55" from-port="1" to-layer="56" to-port="0"/>
		<edge from-layer="52" from-port="3" to-layer="57" to-port="0"/>
		<edge from-layer="56" from-port="3" to-layer="57" to-port="1"/>
		<edge from-layer="57" from-port="2" to-layer="58" to-port="0"/>
		<edge from-layer="58" from-port="1" to-layer="59" to-port="0"/>
		<edge from-layer="59" from-port="3" to-layer="60" to-port="0"/>
		<edge from-layer="60" from-port="1" to-layer="61" to-port="0"/>
		<edge from-layer="61" from-port="3" to-layer="62" to-port="0"/>
		<edge from-layer="62" from-port="1" to-layer="63" to-port="0"/>
		<edge from-layer="58" from-port="1" to-layer="64" to-port="0"/>
		<edge from-layer="64" from-port="3" to-layer="65" to-port="0"/>
		<edge from-layer="65" from-port="1" to-layer="66" to-port="0"/>
		<edge from-layer="66" from-port="3" to-layer="67" to-port="0"/>
		<edge from-layer="67" from-port="1" to-layer="68" to-port="0"/>
		<edge from-layer="64" from-port="3" to-layer="69" to-port="0"/>
		<edge from-layer="68" from-port="3" to-layer="69" to-port="1"/>
		<edge from-layer="69" from-port="2" to-layer="70" to-port="0"/>
		<edge from-layer="70" from-port="1" to-layer="71" to-port="0"/>
		<edge from-layer="71" from-port="3" to-layer="72" to-port="0"/>
		<edge from-layer="72" from-port="1" to-layer="73" to-port="0"/>
		<edge from-layer="73" from-port="3" to-layer="74" to-port="0"/>
		<edge from-layer="74" from-port="1" to-layer="75" to-port="0"/>
		<edge from-layer="70" from-port="1" to-layer="76" to-port="0"/>
		<edge from-layer="76" from-port="3" to-layer="77" to-port="0"/>
		<edge from-layer="77" from-port="1" to-layer="78" to-port="0"/>
		<edge from-layer="69" from-port="2" to-layer="79" to-port="0"/>
		<edge from-layer="78" from-port="3" to-layer="79" to-port="1"/>
		<edge from-layer="79" from-port="2" to-layer="80" to-port="0"/>
		<edge from-layer="80" from-port="1" to-layer="81" to-port="0"/>
		<edge from-layer="81" from-port="3" to-layer="82" to-port="0"/>
		<edge from-layer="82" from-port="1" to-layer="83" to-port="0"/>
		<edge from-layer="83" from-port="3" to-layer="84" to-port="0"/>
		<edge from-layer="84" from-port="1" to-layer="85" to-port="0"/>
		<edge from-layer="80" from-port="1" to-layer="86" to-port="0"/>
		<edge from-layer="86" from-port="3" to-layer="87" to-port="0"/>
		<edge from-layer="87" from-port="1" to-layer="88" to-port="0"/>
		<edge from-layer="79" from-port="2" to-layer="89" to-port="0"/>
		<edge from-layer="88" from-port="3" to-layer="89" to-port="1"/>
		<edge from-layer="89" from-port="2" to-layer="90" to-port="0"/>
		<edge from-layer="90" from-port="1" to-layer="91" to-port="0"/>
		<edge from-layer="91" from-port="3" to-layer="92" to-port="0"/>
		<edge from-layer="92" from-port="1" to-layer="93" to-port="0"/>
		<edge from-layer="93" from-port="3" to-layer="94" to-port="0"/>
		<edge from-layer="94" from-port="1" to-layer="95" to-port="0"/>
		<edge from-layer="19" from-port="1" to-layer="96" to-port="0"/>
		<edge from-layer="96" from-port="3" to-layer="97" to-port="0"/>
		<edge from-layer="97" from-port="1" to-layer="98" to-port="0"/>
		<edge from-layer="98" from-port="3" to-layer="99" to-port="0"/>
		<edge from-layer="99" from-port="1" to-layer="100" to-port="0"/>
		<edge from-layer="97" from-port="1" to-layer="101" to-port="0"/>
		<edge from-layer="101" from-port="3" to-layer="102" to-port="0"/>
		<edge from-layer="102" from-port="1" to-layer="103" to-port="0"/>
		<edge from-layer="103" from-port="3" to-layer="104" to-port="0"/>
		<edge from-layer="26" from-port="1" to-layer="105" to-port="0"/>
		<edge from-layer="105" from-port="3" to-layer="106" to-port="0"/>
		<edge from-layer="106" from-port="1" to-layer="107" to-port="0"/>
		<edge from-layer="107" from-port="3" to-layer="108" to-port="0"/>
		<edge from-layer="38" from-port="1" to-layer="109" to-port="0"/>
		<edge from-layer="109" from-port="3" to-layer="110" to-port="0"/>
		<edge from-layer="110" from-port="1" to-layer="111" to-port="0"/>
		<edge from-layer="111" from-port="3" to-layer="112" to-port="0"/>
		<edge from-layer="48" from-port="1" to-layer="113" to-port="0"/>
		<edge from-layer="113" from-port="3" to-layer="114" to-port="0"/>
		<edge from-layer="114" from-port="1" to-layer="115" to-port="0"/>
		<edge from-layer="115" from-port="3" to-layer="116" to-port="0"/>
		<edge from-layer="60" from-port="1" to-layer="117" to-port="0"/>
		<edge from-layer="117" from-port="3" to-layer="118" to-port="0"/>
		<edge from-layer="118" from-port="1" to-layer="119" to-port="0"/>
		<edge from-layer="119" from-port="3" to-layer="120" to-port="0"/>
		<edge from-layer="72" from-port="1" to-layer="121" to-port="0"/>
		<edge from-layer="121" from-port="3" to-layer="122" to-port="0"/>
		<edge from-layer="122" from-port="1" to-layer="123" to-port="0"/>
		<edge from-layer="123" from-port="3" to-layer="124" to-port="0"/>
		<edge from-layer="82" from-port="1" to-layer="125" to-port="0"/>
		<edge from-layer="125" from-port="3" to-layer="126" to-port="0"/>
		<edge from-layer="126" from-port="1" to-layer="127" to-port="0"/>
		<edge from-layer="127" from-port="3" to-layer="128" to-port="0"/>
		<edge from-layer="92" from-port="1" to-layer="129" to-port="0"/>
		<edge from-layer="129" from-port="3" to-layer="130" to-port="0"/>
		<edge from-layer="130" from-port="1" to-layer="131" to-port="0"/>
		<edge from-layer="131" from-port="3" to-layer="132" to-port="0"/>
	</edges>
	<meta_data>
		<MO_version value="2019.1.1-83-g28dfbfd"/>
		<cli_parameters>
			<data_type value="float"/>
			<disable_fusing value="False"/>
			<disable_gfusing value="False"/>
			<disable_nhwc_to_nchw value="False"/>
			<disable_omitting_optional value="False"/>
			<disable_resnet_optimization value="False"/>
			<enable_concat_optimization value="False"/>
			<enable_flattening_nested_params value="False"/>
			<extensions value="DIR"/>
			<framework value="onnx"/>
			<generate_deprecated_IR_V2 value="False"/>
			<input_model value="DIR\v1.onnx"/>
			<input_model_is_text value="False"/>
			<k value="DIR\CustomLayersMapping.xml"/>
			<keep_shape_ops value="False"/>
			<legacy_mxnet_model value="False"/>
			<log_level value="ERROR"/>
			<mean_scale_values value="{}"/>
			<mean_values value="()"/>
			<move_to_preprocess value="False"/>
			<output_dir value="DIR"/>
			<remove_output_softmax value="False"/>
			<reverse_input_channels value="False"/>
			<save_params_from_nd value="False"/>
			<scale_values value="()"/>
			<silent value="False"/>
			<version value="False"/>
			<unset unset_cli_parameters="batch, counts, finegrain_fusing, freeze_placeholder_with_value, input, input_checkpoint, input_meta_graph, input_proto, input_shape, input_symbol, mean_file, mean_file_offsets, model_name, nd_prefix_name, output, placeholder_shapes, pretrained_model_name, saved_model_dir, saved_model_tags, scale, tensorboard_logdir, tensorflow_custom_layer_libraries, tensorflow_custom_operations_config_update, tensorflow_object_detection_api_pipeline_config, tensorflow_operation_patterns, tensorflow_subgraph_patterns, tensorflow_use_custom_operations_config"/>
		</cli_parameters>
	</meta_data>
</net>
